…
 of time which is to take continuous variables and subtract their mean and divide by their standard deviation so they are zero-one variables. | . For the full list of transforms available see the documentation. . Training the Model . learn = tabular_learner(data, layers=[200,100], metrics=accuracy) . learn.fit(1, 1e-2) Total time: 00:03 epoch train_loss valid_loss accuracy 1 0.362837 0.413169 0.785000 (00:03) . This creates a tabular_learner network with the parameter layers=[200, 100]. What is this exactly? If you look at model in pytorch, learn.model: . TabularModel( (embeds): ModuleList( (0): Embedding(10, 6) (1): Embedding(17, 8) (2): Embedding(8, 5) (3): Embedding(16, 8) (4): Embedding(7, 5) (5): Embedding(6, 4) (6): Embedding(3, 3) ) (emb_drop): Dropout(p=0.0) (bn_cont): BatchNorm1d(3, eps=1e-05, momentum=0.1, affine=True, track_running_stats=True) (layers): Sequential( (0): Linear(in_features=42, out_features=200, bias=True) (1): ReLU(inplace) (2): BatchNorm1d(200, eps=1e-05, momentum=0.1, affine=True, track_running_stats=True) (3): Linear(in_features=200, out_features=100, bias=True) (4): ReLU(inplace) (5): BatchNorm1d(100, eps=1e-05, momentum=0.1, affine=True, track_running_stats=True) (6): Linear(in_features=100, out_features=2, bias=True) ) ) . The tabular learner is a just a multi-layer perceptron (MLP) (the layers group) with some funny input bolted onto the front of it. In the layers group you can see the first two Linear layers have an output size of 200 and 100, respectively. These are the sizes we put into the layers parameter in the model. So it’s a two layer MLP with layer sizes of 200 and 100. . The input layer consists of a bunch of Embedding layers. We’ll explain these later, but basically for each of the categorical features in the data (there are 6 here) there is an embedding layer. An embedding maps the total number of unique values of a categorical variable to a lower dimensional continuous vector space. If you take the zeroth embedding layer as an example: . (0): Embedding(10, 6) . This variable has 9 unique values + 1 null value added by the fastai processors. Its output is 6 dimensional. . All of the outputs of the embedding layers are concatenated together along with the 3 continuous features to create a 42 dimensional vector that is the input to the MLP part of the network. . Collaborative Filtering . Collaborative filtering is where you have many users and many
…
