…
it’s still just a bunch of kernels, but we’re just jumping over 2 at a time. We’re skipping every alternate input pixel. So the output from that will be H/2 by W/2. When we do that, we generally create twice as many kernels, so we can now have 32 activations in each of those spots. That’s what modern convolutional neural networks tend to look like. . The learn.summary() of a resnet it looks like this: . ====================================================================== Layer (type) Output Shape Param # Trainable ====================================================================== Conv2d [64, 176, 176] 9,408 False ______________________________________________________________________ BatchNorm2d [64, 176, 176] 128 True ______________________________________________________________________ ReLU [64, 176, 176] 0 False ______________________________________________________________________ MaxPool2d [64, 88, 88] 0 False ______________________________________________________________________ Conv2d [64, 88, 88] 36,864 False ______________________________________________________________________ BatchNorm2d [64, 88, 88] 128 True ______________________________________________________________________ ReLU [64, 88, 88] 0 False ______________________________________________________________________ Conv2d [64, 88, 88] 36,864 False ______________________________________________________________________ BatchNorm2d [64, 88, 88] 128 True ______________________________________________________________________ Conv2d [64, 88, 88] 36,864 False ______________________________________________________________________ BatchNorm2d [64, 88, 88] 128 True ______________________________________________________________________ ReLU [64, 88, 88] 0 False ______________________________________________________________________ Conv2d [64, 88, 88] 36,864 False ______________________________________________________________________ BatchNorm2d [64, 88, 88] 128 True ______________________________________________________________________ Conv2d [64, 88, 88] 36,864 False ______________________________________________________________________ BatchNorm2d [64, 88, 88] 128 True ______________________________________________________________________ ReLU [64, 88, 88] 0 False ______________________________________________________________________ Conv2d [64, 88, 88] 36,864 False ______________________________________________________________________ BatchNorm2d [64, 88, 88] 128 True ______________________________________________________________________ Conv2d [128, 44, 44] 73,728 False ______________________________________________________________________ BatchNorm2d [128, 44, 44] 256 True ______________________________________________________________________ ReLU [128, 44, 44] 0 False ______________________________________________________________________ Conv2d [128, 44, 44] 147,456 False ______________________________________________________________________ BatchNorm2d [128, 44, 44] 256 True ______________________________________________________________________ Conv2d [128, 44, 44] 8,192 False ______________________________________________________________________ BatchNorm2d [128, 44, 44] 256 True ______________________________________________________________________ Conv2d [128, 44, 44] 147,456 False ______________________________________________________________________ BatchNorm2d [128, 44, 44] 256 True ______________________________________________________________________ ReLU [128, 44, 44] 0 False ______________________________________________________________________ Conv2d [128, 44, 44] 147,456 False ______________________________________________________________________ BatchNorm2d [128, 44, 44] 256 True ______________________________________________________________________ Conv2d [128, 44, 44] 147,456 False ______________________________________________________________________ BatchNorm2d [128, 44, 44] 256 True ______________________________________________________________________ ReLU [128, 44, 44] 0 False ______________________________________________________________________ Conv2d [128, 44, 44] 147,456 False ______________________________________________________________________ BatchNorm2d [128, 44, 44] 256 True ______________________________________________________________________ Conv2d [128, 44, 44] 147,456 False ______________________________________________________________________ BatchNorm2d [128, 44, 44] 256 True ______________________________________________________________________ ReLU [128, 44, 44] 0 False ______________________________________________________________________ Conv2d [128, 44, 44] 147,456 False ______________________________________________________________________ BatchNorm2d [128, 44, 44] 256 True ______________________________________________________________________ Conv2d [256, 22, 22] 294,912 False ______________________________________________________________________ BatchNorm2d [256, 22, 22] 512 True . There are stacks of convolutional layers and every so often it halves the grid size and doubles the number of channels. . Manual Convolution . Input image: . . Convolve with tensor: . k = tensor([ [0. ,-5/3,1], [-5/3,-5/3,1], [1. ,1 ,1], ]).expand(1,3,3,3)/6 . The images has 3 channels so we need to expand the tensor to replicate the kernel 3 times. We also add in an additional unit dimens
…
